Attached_images/Chapter12/models/iris_classifier_state.pt (torch, 2227 bytes, 4 tensors)

layer1.weight f4 [16, 4]
000000 d8 ae e0 3e 34 f4 24 bf 72 79 cf 3f 7e ed 9d 3f
       0.43883395 -0.64435124 1.6208937 1.2338102
000010 c3 55 49 be 0e fe 92 3c a5 b0 f7 bf 8a 28 96 bf
       -0.19661622 0.017943408 -1.9350783 -1.1731122
000020 24 f7 91 3d 6e bd 46 3f c0 0e 7e 3f 43 30 1a 3f
       0.071272165 0.77632797 0.99241257 0.6022989
000030 e4 f2 21 3e f3 b9 8a 3e ec 1a c8 3f 46 13 91 3f
       0.15815312 0.27094993 1.5633216 1.1334007
000040 17 36 be 3e d8 20 94 bf fd f2 0e 40 30 c3 5d 3f
       0.37150642 -1.1572523 2.2335808 0.8662596
000050 4f 1f cf 3c b8 5b 30 be 96 41 db 3f 0c 0d 58 3f
       0.025283484 -0.17222488 1.712939 0.8439491
000060 7d f7 26 3f f9 ea cf bf e2 74 33 40 91 62 01 3f
       0.6522139 -1.6243583 2.804009 0.50541025
000070 43 c3 87 be d1 f6 32 3f a4 c9 ec bf 83 47 7c bf
       -0.2651616 0.6990786 -1.8499036 -0.9854662
000080 f1 fb bc 3d 88 a1 ae 3e ab 14 19 c0 3c 9a a4 bf
       0.092277415 0.34107614 -2.3918865 -1.2859569
000090 ff 10 04 3e 32 6b ab 3f 22 81 7c bf fa d3 95 be
       0.12897108 1.3392088 -0.9863454 -0.29263288
0000a0 64 4a 02 3f 10 05 a5 bf fd f7 09 40 9b 3d 4d 3f
       0.5089476 -1.289217 2.155761 0.8017213
0000b0 48 42 05 be b0 fc 90 3d 65 dd 04 c0 a4 b0 96 bf
       -0.13013566 0.07079446 -2.0760128 -1.1772656
0000c0 bb 82 18 be 11 e0 9d 3d 96 9d 11 c0 94 c2 be bf
       -0.1489362 0.07708753 -2.2752433 -1.490313
0000d0 88 8d d2 3e 84 61 aa bf c2 d1 0c 40 76 ea 58 3f
       0.41123605 -1.331101 2.2003026 0.8473276
0000e0 d0 d4 51 3f ed 24 ff bf 76 e5 34 40 d5 c8 58 3e
       0.8196535 -1.9933144 2.8265052 0.21170361
0000f0 01 21 96 3e 90 2a a0 bf 16 57 1d 40 78 84 3c 3f
       0.29322055 -1.2512989 2.4584403 0.7363963

layer1.bias f4 [16]
000000 78 75 b6 be e8 c8 d5 3e d7 ec a1 bc 45 66 12 be
       -0.35636497 0.41754842 -0.019766254 -0.14296825
000010 50 2b 73 be 8b 4b c5 be 56 39 20 3f d7 db e6 3e
       -0.23746991 -0.38534197 0.6258749 0.450896
000020 78 83 8d 3e b2 e6 3d bd 95 32 a7 bc f7 c9 f3 3e
       0.27639365 -0.046362586 -0.020409862 0.47615024
000030 3c 5a d6 3e 79 d1 ca 3e 00 b9 32 ba 1c 15 2a 3f
       0.41865718 0.3961294 -0.0006817728 0.6643846

layer2.weight f4 [3, 16]
000000 32 6a 9e bf 11 d3 60 3f dc 8a 21 be d7 6b 13 bf
       -1.2376158 0.8782206 -0.15775627 -0.57586426
000010 d9 64 bc bf b4 d8 49 bf 18 19 ce bf 5a 5d bc 3f
       -1.4718276 -0.7884629 -1.6101408 1.4715989
000020 ae ef 60 3f d9 a7 30 3f b3 bb 9a bf ea 24 49 3f
       0.8786572 0.69006115 -1.2088531 0.7857195
000030 4a 4c 6a 3f 8d 14 8c bf 85 ca cc bf 19 bd de bf
       0.9152266 -1.0943772 -1.5999304 -1.7401458
000040 3f 2a 45 be ab bd 87 3e dd 4f be be a3 6d e6 be
       -0.19254397 0.26511893 -0.37170306 -0.4500552
000050 5a 29 cc 3d 81 64 ca be 37 20 3a 3e 5b 47 c8 3d
       0.09968825 -0.39529803 0.18176351 0.09779235
000060 5b c6 15 3e 51 ce 90 be 40 56 4c 3e 80 88 8b 3e
       0.14626448 -0.28282407 0.19954777 0.2725258
000070 f1 3a 0d 3f 79 7e c9 bc 03 5a 1d 3e ff fe b1 3d
       0.5516806 -0.02459644 0.15366368 0.08691215
000080 3d 16 63 3f cd fd ad bf 89 d0 b1 3e 5f 26 42 3f
       0.8870581 -1.3593079 0.34729412 0.758398
000090 49 2a 5a 3f 15 fa 35 3f b4 58 6a 3e 5c ef b5 bf
       0.8522077 0.7108472 0.228854 -1.4213672
0000a0 69 a6 b8 bf b4 4f 47 be 14 cc 3e 3f a8 79 af bf
       -1.4425784 -0.19463998 0.7453015 -1.3709002
0000b0 ec 54 95 bf 9e 42 9e 3e 37 18 14 3e 3e d1 0b 3f
       -1.1666541 0.309102 0.14462362 0.54616153

layer2.bias f4 [3]
000000 83 1a cd 3e 2d c1 00 3e 58 27 4e be
       0.4005929 0.1257369 -0.20132196
